…
Argument forecast_tr: 2
Argument forecast_vl: 2
Argument inv_fnc: 'MLP'
Argument lr: 0.002
Argument model: 'node'
Argument modulator_dim: 4
Argument noise: None
Argument num_workers: 0
Argument ode_latent_dim: 4
Argument order: 1
Argument plotL: 1
Argument plot_every: 250
Argument rnn_hidden: 10
Argument save: '/media/usr/SSD/yongmin/NDE/MONODE/results/ais/node/MoNODE_4/'
Argument seed: 13
Argument shuffle: True
Argument solver: 'euler'
Argument task: 'ais'
Argument use_adjoint: 'no_adjoint'
MoNODE(
  (flow): Flow(
    (odefunc): ODEfunc(
      (diffeq): MLP(
        (layers): ModuleList(
          (0): Linear(in_features=8, out_features=128, bias=True)
          (1): Linear(in_features=128, out_features=128, bias=True)
          (2): Linear(in_features=128, out_features=4, bias=True)
        )
        (acts): ModuleList(
          (0-1): 2 x Softplus(beta=1.0, threshold=20.0)
          (2): Identity()
        )
      )
    )
  )
  (vae): VAE(
    (encoder): EncoderRNN(
      (sp): Softplus(beta=1.0, threshold=20.0)
      (gru): GRUEncoder(
        (rnn_hidden_to_latent): Sequential(
          (0): Linear(in_features=10, out_features=50, bias=True)
          (1): ReLU(inplace=True)
          (2): Linear(in_features=50, out_features=8, bias=True)
        )
        (gru): GRU(2, 10)
      )
    )
    (decoder): Decoder(
      (net): MLP(
        (layers): ModuleList(
          (0): Linear(in_features=8, out_features=128, bias=True)
          (1): Linear(in_features=128, out_features=128, bias=True)
          (2): Linear(in_features=128, out_features=2, bias=True)
        )
        (acts): ModuleList(
          (0-1): 2 x ReLU()
          (2): Identity()
        )
      )
      (sp): Softplus(beta=1.0, threshold=20.0)
    )
  )
  (inv_enc): INV_ENC(
    (inv_encoder): InvariantEncoderRNN(
      (sp): Softplus(beta=1.0, threshold=20.0)
      (gru): GRUEncoder(
        (rnn_hidden_to_latent): Sequential(
          (0): Linear(in_features=10, out_features=50, bias=True)
          (1): ReLU(inplace=True)
          (2): Linear(in_features=50, out_features=8, bias=True)
        )
        (gru): GRU(2, 10)
      )
    )
  )
)
********** Started Training **********
Epoch:   0/2000 | tr_loss:9183016.75(9183016.75) | valid_mse T=50 :10222.727 | valid_mse T=100 :9422.363 
********** Current Best Model based on validation error ***********
Epoch:   0/2000
T=50 test_mse 8227.937(0.000)
T=100 test_mse 8586.435(0.000)
Epoch:   1/2000 | tr_loss:9016463.68(9178020.15) | valid_mse T=50 :10202.414 | valid_mse T=100 :9384.073 
…
